ChatBot_MentalHealth/data.pth (torch, 10647 bytes, 6 tensors)

l1.weight f4 [8, 183]
000000 73 25 05 3e 80 c4 4f bd 7d e0 e0 bd f8 4f c9 3e
       0.13002567 -0.050724506 -0.10980318 0.39318824
000010 33 09 00 3e f0 2c 97 bd ce 1e e6 3e 43 89 1c 3e
       0.12503509 -0.07381618 0.44945377 0.15286736
000020 fb b4 95 3d d0 bc 4b 3e ee 2f c6 3c 43 ca 9c 3d
       0.0730991 0.19896245 0.024192777 0.07655766
000030 4a 14 f2 3e 6b 64 29 be ca 31 f2 bd 88 8c 47 bc
       0.47281104 -0.16542213 -0.11825903 -0.012179501
000040 3f d4 ee 3b 65 6b 10 3e 6c a4 bc 3e e2 79 18 be
       0.0072884853 0.14103468 0.36844194 -0.14890245
000050 79 4f e7 bd 69 78 40 3f e9 14 21 be d5 c4 48 3e
       -0.11294455 0.7518373 -0.15730633 0.19606335
000060 13 82 b6 bd c0 76 23 3f ec 61 12 be a2 10 c8 3d
       -0.089115284 0.63853073 -0.14295167 0.097687975
000070 4c ac 3b be 4e b6 2a be 26 a9 bc 3d 3c 84 c0 bd
       -0.18327445 -0.16671106 0.0921195 -0.09400222
000080 bd 1d 14 be 24 a6 e0 3d 16 fd 3f be 85 86 16 be
       -0.14464469 0.10969189 -0.18748888 -0.14699753
000090 fe aa 50 3e 56 5e 47 be 1e 93 d6 3e c5 82 00 3e
       0.20377728 -0.1946958 0.41909117 0.12549885
0000a0 45 2f 3c 3e 0e 18 37 3e 6c 48 10 3f 9c 6f c9 3e
       0.18377407 0.1788027 0.56360507 0.39342964
0000b0 aa 8a fb 3d 16 3d e7 3e 52 67 be 3e 75 db 0b 3e
       0.122823074 0.45163792 0.37188202 0.13657935
0000c0 b2 21 5a 3e 98 13 74 3e 38 4b cc 3e c0 58 c5 3c
       0.21301916 0.238356 0.39901137 0.02409017
0000d0 5a d8 e2 3d 90 20 3f 3e 87 d6 97 3e 97 ba c7 3d
       0.11076422 0.18664765 0.2965586 0.09752386
0000e0 a2 11 2a 3e 2f 67 18 3e 83 b9 13 3e aa 9a d4 3e
       0.16608289 0.14883111 0.14426236 0.4152425
0000f0 39 3f 45 3e 54 45 f8 3d a2 ff 93 3e 73 ff 74 3e
       0.19262399 0.12122598 0.2890597 0.23925571
000100 20 cc 15 3e e7 57 4c 3e 35 15 8b 3e 3d a8 91 3e
       0.14628649 0.19955407 0.27164617 0.28448668
000110 11 c3 86 3e 81 1e 69 3e ef 1e 1f 3e 36 a7 f7 3d
       0.263207 0.22765543 0.15539144 0.1209244
000120 e8 4f 35 3f 34 25 f7 3e 8c fb 21 3e ef 44 2c 3f
       0.7082505 0.4827057 0.15818614 0.67292684
000130 c5 5c 5a 3e 79 ce 38 3e ba 68 8a 3e 89 b3 2b 3f
       0.21324451 0.18047513 0.27033025 0.67070824
000140 b2 8c 6c 3d dd 0b 34 3e a0 1f 6f 3e f2 59 d0 bc
       0.057751365 0.1758265 0.23351908 -0.025433514
000150 be 6d d1 bb b3 5e ac 3e 31 ce 31 3f 5e be 61 bd
       -0.006391256 0.33666 0.6945525 -0.05511319
000160 02 2a 41 3e d1 7d 7b 3e 28 8f 72 3d 0e f2 11 3e
       0.18863681 0.24559714 0.059218556 0.14252493
000170 12 60 92 3b e9 ae 13 bc 36 ff 18 3e 80 02 44 3f
       0.004467019 -0.00901387 0.14941105 0.76566315
000180 b3 f6 fd bc 0a 0c 25 3e f0 3f 54 3e ce 77 ad 3d
       -0.031001424 0.16117874 0.20727515 0.084701166
000190 bf 77 08 3e 18 ec 24 3f fb 5e 42 3e 05 b9 32 3e
       0.1332693 0.6442275 0.18981545 0.17453392
0001a0 ba 31 42 3e 5e 10 39 3e 19 66 88 bd 66 c7 cb 3e
       0.18964282 0.1807265 -0.066600986 0.39800566
0001b0 8c b3 45 3e 86 31 f3 bd 4e bd 34 3e 78 fd a4 3e
       0.19306773 -0.1187468 0.17650339 0.3222463
0001c0 c6 57 b2 3e 17 f2 2a be 0f 15 ce 3d 24 75 5c 3e
       0.3483259 -0.16693912 0.1006261 0.2152906
0001d0 73 bf 0c 3e c4 95 37 bc 5e af ea bc 2e 91 b8 3e
       0.13744907 -0.0112051405 -0.028648075 0.36048263
0001e0 7f 74 11 be 7d 58 14 bd cf d7 2f 3e 79 47 90 3e
       -0.14204596 -0.0362172 0.17172168 0.2817953
0001f0 0f 0e fe 3c 1a ba 29 3e a3 e3 67 3d 94 de b1 3d
       0.031012563 0.16574898 0.056613576 0.086850315
000200 11 81 d6 3d ea 2a 1e bd ec bf d2 bd 43 c5 9b 3d
       0.10473836 -0.038615145 -0.102905124 0.07605984
000210 c9 1d 7f 3e 7a 85 96 3d 28 c0 a8 3d 1c e1 5d bd
       0.24913706 0.073496774 0.08239776 -0.05416976
000220 0a 20 85 3e 94 85 2e 3e cf ee 41 3e c5 6a 69 3e
       0.26001006 0.17043144 0.18938754 0.22794636
000230 f5 64 b2 3e e6 0f f1 3e 50 74 73 3e 7a f3 b5 3e
       0.3484265 0.47082442 0.23774838 0.3553732
000240 0f 35 0d 3e ab c2 80 3e ce c1 ab 3e 8b c7 96 3e
       0.13789771 0.2514852 0.335463 0.29449114
000250 6d b4 1f 3e 19 da 4b 3e b3 06 34 3e be 64 98 bc
       0.1559617 0.19907416 0.1758068 -0.018602725
000260 d8 bf 21 3d 6f d9 b6 3e 3d 19 80 3e a0 90 52 bd
       0.039489597 0.35712764 0.25019255 -0.051407456
000270 34 79 41 3e 82 90 28 3e ea 7d 0e 3d b6 f4 26 3e
       0.18893892 0.16461375 0.03478805 0.16304287
000280 43 a9 d9 3b f7 60 f3 3d 18 00 80 3d 7b 26 ae 3e
       0.006642492 0.11883729 0.06250018 0.34013733
000290 be 7f a6 bd 7a 63 1e 3e b5 c9 22 3e fe 01 52 3e
       -0.08129834 0.15467635 0.15897258 0.20508572
0002a0 4b e7 1e 3e f5 b7 ae 3e c5 a9 1a 3e 09 e3 38 3e
       0.15517919 0.34124723 0.15103824 0.18055357
0002b0 c7 00 ed 3d d2 a5 8d be 9f ac 53 3e e8 5a 9d 3e
       0.11572414 -0.27665573 0.20671318 0.30733418
0002c0 bb bd a8 be 8f c1 b4 be e0 0c 38 3e 0b 95 42 3e
       -0.32957253 -0.35303923 0.17973661 0.19002168
0002d0 fe 2a e2 bd b8 c6 26 3e 58 f8 76 be df dc 5f 3d
       -0.11043356 0.16286743 -0.24118173 0.054654
0002e0 5f 85 46 3d c5 39 e8 3d 27 c2 09 bc 9c 13 34 3e
       0.048467036 0.11339144 -0.008408106 0.17585605
0002f0 e0 3a 5e 3e bf b7 fc bb a0 a8 ab 3d af 94 1a 3e
       0.21702147 -0.007712334 0.08381772 0.15095781
000300 d8 b0 3a 3e ae a7 11 3e a8 07 01 3e e6 d4 89 3d
       0.18231523 0.14224121 0.12600577 0.0673006
000310 5d 69 0a 3f c9 9e ba ba 63 de 62 3d cb d2 45 3e
       0.5406702 -0.0014237995 0.055387866 0.19318692
000320 55 14 19 3e 8d 98 f1 3c 2a a4 07 3f ac be 9a 3d
       0.14949162 0.029491687 0.5298487 0.07555899
000330 b4 5c 4a 3f fc 78 61 3e 14 1b 1c 3e 92 df cd 3d
       0.79047704 0.22018808 0.15244704 0.10052408
000340 15 d6 4b 3f 2e 2e 1b 3f 7a bc 17 3e be 8e 33 3f
       0.7962354 0.6061734 0.14817992 0.7013968
000350 a8 dd 2a 3f 9a d0 ce 3d e9 66 2a 3f 18 fc 25 3f
       0.6674447 0.10098381 0.6656328 0.6483779
000360 26 6e 10 3f 90 1a 1a 3f a4 ee 12 3f 3c a1 b1 3e
       0.56418073 0.6019678 0.57395387 0.34693325
000370 3a c6 a7 3e 75 f2 18 3e c7 c3 5b 3d c0 21 ea 3d
       0.32768422 0.1493624 0.053653505 0.114322186
000380 b1 50 38 3d ac a1 31 be 0b aa 4a 3d 70 58 12 3e
       0.04499883 -0.17346829 0.04947857 0.14291549
000390 75 f8 58 3d 38 df d5 3d dc 25 b3 3d ea 03 85 bd
       0.052971322 0.10442966 0.087474555 -0.06494887
0003a0 9c b1 01 be f7 77 29 3e 86 41 88 3b a8 eb 16 3e
       -0.12665409 0.16549669 0.0041582016 0.14738333
0003b0 4c aa 0c 3f 7b 77 7f 3e da ec 4f bd a6 ed 53 3e
       0.5494735 0.24947922 -0.05076299 0.20696124
0003c0 a7 52 0d 3d 63 27 47 3d fa b8 0c 3e aa 1d 33 3e
       0.03450265 0.048621546 0.13742438 0.17491785
0003d0 e8 7c 95 3e d9 6b 0f be 92 e8 3d be 03 9e 8f 3e
       0.29196858 -0.14005984 -0.1854575 0.2805024
0003e0 4c b9 b0 3e f0 50 51 bd 22 51 81 3e 0b 04 c7 bc
       0.3451637 -0.05110258 0.25257212 -0.02429392
0003f0 25 a7 c7 3d 74 6b 0f 3d b9 7e 3b 3e 43 a1 b9 be
       0.09748677 0.035014585 0.1831006 -0.36255845

l1.bias f4 [8]
000000 f9 03 ce 3e 2c 8e 4e 3f 05 2d 2c 3f b9 ab e9 3e
       0.40237406 0.8068569 0.67256194 0.45638826
000010 31 1c 25 3f 45 96 3c 3f a9 b1 aa 3d 76 45 29 3f
       0.6449614 0.73666793 0.08334667 0.66121614

l2.weight f4 [8, 8]
000000 d4 8c 48 3f 3b 12 15 3e a5 68 2d bf a9 c6 47 3f
       0.78339887 0.14557736 -0.677378 0.78037506
000010 71 3d a7 bd 2b 05 4a bf 8d c7 83 3f 69 fd 78 be
       -0.08166016 -0.78914136 1.0295273 -0.24315418
000020 45 75 16 3e 66 5f 8f 3e 4f 55 f8 be 5f 54 65 be
       0.14693172 0.2800247 -0.48502585 -0.22395466
000030 6b 91 93 be af db c3 be 8f 0b 7e bd 96 a4 06 3f
       -0.28821883 -0.38253543 -0.062022742 0.5259489
000040 4d 17 1b 3e f6 91 5c 3f 6c 13 c3 be f8 93 2d 3f
       0.15145607 0.8616022 -0.38100755 0.6780391
000050 75 28 80 3f cf f4 72 3f 48 a5 3b bf f1 f2 43 3f
       1.0012347 0.949048 -0.73299074 0.76542574
000060 8d 2e f7 be 4f a6 26 3f 8c 03 a0 3e 3c 66 04 bf
       -0.48277703 0.65097517 0.31252706 -0.517185
000070 0b 67 46 3f b9 a4 0d 3f 9a 78 7f be 03 74 17 3f
       0.7750098 0.5532947 -0.2494835 0.59161395
000080 76 a5 fd bd 1a 7f 70 bd 3c e0 69 3c fd 3a bd 3d
       -0.12385075 -0.058714963 0.014274653 0.09239767
000090 86 74 89 be 30 b4 10 bd 76 e0 35 be fd ec 44 be
       -0.26846713 -0.03532809 -0.17761406 -0.19231029
0000a0 8a 67 88 3e 07 e1 95 3f d5 5f ad 3f b4 6f 24 bf
       0.26641494 1.1709298 1.3544871 -0.64232945
0000b0 a9 f3 25 3e 1e 36 e4 3d 2b 7e e4 3e 78 d4 1c bf
       0.1620623 0.111431345 0.4462751 -0.612617
0000c0 87 5b 55 3f bf 29 1f bf fe 15 0a bf 21 fd f7 3e
       0.83342785 -0.62173074 -0.5393981 0.4843531
0000d0 1c 76 7b 3f 9c 06 25 3f 8b 92 37 3f 77 ac 89 3f
       0.98227096 0.6446321 0.7170798 1.0755757
0000e0 d2 a6 41 3f 66 40 e0 bd e8 dc 6c 3f f2 50 43 3f
       0.7564517 -0.10949783 0.92524576 0.7629539
0000f0 32 c7 37 bf 19 fe eb be 19 1d 0c 3e 99 5a 06 bf
       -0.7178832 -0.460923 0.13682975 -0.5248199

l2.bias f4 [8]
000000 25 4a 8d 3d da 99 2a be 9c a2 ff 3e 8b 49 87 3e
       0.068989076 -0.16660252 0.4992875 0.26423296
000010 0c da 6a be f2 64 28 3f 2e 97 8f 3e 0d 26 3b 3f
       -0.22934741 0.6577903 0.28045028 0.73104936

l3.weight f4 [8, 8]
000000 60 29 69 3e 59 c2 d8 3e ac 61 8b 3d 1c ea 42 bf
       0.2276969 0.42335775 0.06805739 -0.7613847
000010 67 ac bc be a0 a4 72 be 91 e9 0c 3f af 63 0e bf
       -0.36850283 -0.23695612 0.55043894 -0.55620855
000020 3c c0 8b bd 2d 98 42 bf e6 ee a0 bf 8f a2 b5 bf
       -0.06823775 -0.7601345 -1.2572906 -1.4190234
000030 f1 e6 01 be de c4 e7 bd fa 5b 56 3e c9 45 18 3f
       -0.12685753 -0.11316846 0.20933524 0.59481484
000040 f8 aa ea 3e cc ff 92 bf 63 03 4b 3e 9e 4f c0 bf
       0.45833564 -1.1484313 0.1982551 -1.5024297
000050 16 35 cb bd 32 b2 f2 bd 6b ae 3f bf db d4 07 3e
       -0.09922235 -0.11850394 -0.74875516 0.13264792
000060 d2 50 15 3e 2e cf 33 bf c3 93 a4 bf 28 a4 16 bf
       0.14581612 -0.70238006 -1.2857593 -0.5884423
000070 d9 0f 38 3e 05 60 09 3f 03 f8 1a bf 0a fa c5 bd
       0.17974795 0.5366214 -0.60534686 -0.09666832
000080 bc 27 bc bf d4 cd af be 71 d5 d2 bd 45 47 ca 3d
       -1.4699626 -0.34336722 -0.10294617 0.09876875
000090 2a 80 b2 be df 9b 16 3f be 29 71 bf 5b cf cf 3e
       -0.34863406 0.5883159 -0.9420432 0.40587887
0000a0 dc 54 52 bf 25 35 35 be 7e a4 2f 3f ad 1a c8 3e
       -0.82160735 -0.17696054 0.6861037 0.39082852
0000b0 66 ce 8e 3e b3 6f 1e bf ff b8 e6 3e c6 50 2f bf
       0.27891845 -0.6188919 0.45063016 -0.68482625
0000c0 98 ea 0e 3f 21 dd a8 bf 0f 16 56 bf f0 43 8c bf
       0.5582671 -1.3192483 -0.8362741 -1.0958233
0000d0 a5 4a 9c be 38 54 97 bf db ee b9 3e d6 90 6b 3e
       -0.305257 -1.1822577 0.36315045 0.2300447
0000e0 4e 3a 18 bf 0c 70 06 bf c1 9a 16 3e 02 27 55 3f
       -0.59463966 -0.5251472 0.14707471 0.83262646
0000f0 75 61 88 3e 33 9c ef 3e bd d5 2d bf 91 3f 8c bf
       0.26636854 0.46798858 -0.67904264 -1.0956899

l3.bias f4 [8]
000000 1f d2 6a bd 29 8c 50 be 89 df 8d be d5 0c ba be
       -0.057329293 -0.20365967 -0.27709606 -0.36337915
000010 ad e8 2e 3f 25 50 52 3e 33 45 85 3d b2 19 a7 be
       0.68323785 0.20538385 0.06507339 -0.3263679
